logs/envWithHistory3_32-32/policy.pth (torch, 22529 bytes, 12 tensors)

q_net.q_net.0.weight f4 [32, 33]
000000 9c 7d 75 3d 4f 53 1e 3e 4a 03 a8 bd 90 d4 4a be
       0.059934244 0.15461467 -0.08203752 -0.19807649
000010 79 4c 0c be e3 b5 be bc 31 56 06 bd ca 8d de 3d
       -0.13701047 -0.02328009 -0.032797042 0.10866888
000020 20 82 37 bd 07 61 8a 3e 9e b3 2f 3e ee 87 42 3e
       -0.04480183 0.2702715 0.17158362 0.18997166
000030 17 86 3b bd 15 a8 ab 3b e3 c0 47 3d 92 9b d0 3e
       -0.045782175 0.005238543 0.048767935 0.4074369
000040 f0 8a f0 3e 36 65 01 3f 9b 90 0a bf b9 84 ff be
       0.46981 0.5054506 -0.541269 -0.49905947
000050 d0 57 b8 be 4c 3e 12 3c 78 8f 2f be 27 b3 af bb
       -0.36004496 0.008925986 -0.17144573 -0.005361933
000060 85 01 91 3e 99 cd a8 3e 73 15 f0 3e ce 8e 03 be
       0.28321472 0.3296936 0.46891364 -0.12847444
000070 a1 09 a1 3d 12 45 9d bd 2c b2 a9 3e b4 ef 28 bd
       0.07863165 -0.0767919 0.33143747 -0.041244224
000080 a0 ec 28 bf a3 1b 62 be c4 4b 86 be 95 7f 9b be
       -0.6598606 -0.22080855 -0.2622968 -0.30370775
000090 db a6 61 bc d7 2c 73 3e 82 80 29 3e 1f 2e 8f be
       -0.013772692 0.23747574 0.16552928 -0.27964875
0000a0 6e b0 b5 be 24 12 e8 be 7e 42 8e 3c cc ce 32 be
       -0.35486168 -0.4532634 0.01736569 -0.17461699
0000b0 82 2d 0d be 83 cb ea 3e f4 7d 28 3f e5 80 26 3f
       -0.13786891 0.45858392 0.6581719 0.6504043
0000c0 ca 7c 10 bf a2 aa fc be d1 72 c0 be 11 5c 98 3e
       -0.56440413 -0.49348933 -0.37587598 0.2975774
0000d0 4a 43 46 3e 32 98 17 3e ea 47 0b bf 5d 66 43 bf
       0.19361606 0.14804152 -0.5440661 -0.7632807
0000e0 11 db 20 bf 9f be 4e bf b5 14 4b bf a7 37 43 bf
       -0.6283427 -0.80759615 -0.7932847 -0.76256794
0000f0 7d fa 15 bc 8f 6c ca bd aa c5 4d 3c 5c ee 50 bd
       -0.009153959 -0.09883987 0.012559334 -0.051008567
000100 a5 f4 9c 3c d6 7b c6 3d c2 eb 42 bd ef b8 63 bc
       0.019159624 0.096915886 -0.047588117 -0.013899072
000110 33 30 5c 3d 27 1e e3 3e 32 b4 11 3e cc c2 59 3e
       0.053756904 0.44358942 0.14228895 0.21265715
000120 16 38 93 be 8b cc 58 be d4 5e 51 be 5a 4c 24 bf
       -0.28753728 -0.21171777 -0.2044633 -0.64179003
000130 a6 c0 42 bf 9a 60 72 bf 06 a2 a6 3e ef 5a 4d 3e
       -0.7607521 -0.9467865 0.3254549 0.2005422
000140 07 bf 16 3e f6 8b a2 3e 15 20 97 3e e8 78 31 bc
       0.14721309 0.31747407 0.29516664 -0.010832049
000150 77 d9 3d 3c 6c 26 4e bd b7 5e 4b bd 7c ed c7 3d
       0.011587492 -0.05032961 -0.049650874 0.097620934
000160 35 1d 7a 3e a5 f8 97 3d 57 4d b6 bc b0 ac 00 3b
       0.24425204 0.07420472 -0.022253675 0.001963418
000170 a7 e2 1d 3d 06 39 1a bb 54 68 12 3e 93 4e 77 be
       0.03854623 -0.0023532524 0.1429761 -0.24151067
000180 12 bd 81 3e e3 7b 3c 3e ff 32 4c bf 3b 2b b1 3d
       0.25339562 0.18406634 -0.79765314 0.08650824
000190 78 74 b3 3e bc a9 9b 3e 3a f8 c2 3d c6 57 02 3e
       0.35049796 0.30402935 0.09520002 0.12728795
0001a0 24 cb ac 3b e1 4e ba be c0 d2 fb be 77 75 fd be
       0.0052732397 -0.36388305 -0.49184227 -0.4950368
0001b0 18 3c 42 3e 10 d0 66 3e 56 0d 03 3e c3 fa df 3e
       0.18968236 0.22540307 0.12798056 0.43746004
0001c0 c7 b7 69 3e 14 f6 fb 3e c6 51 c9 3f cc 42 a7 3f
       0.22824012 0.4921118 1.572808 1.306726
0001d0 b5 80 b4 3f b2 27 34 bf cd a9 2f bf db 98 2b bf
       1.4101778 -0.7037307 -0.6861847 -0.67030114
0001e0 0a 1f ca 3e 15 7a ac 3e c5 4c 77 3e 50 7d 18 3f
       0.39476806 0.3368689 0.24150379 0.5956621
0001f0 81 4e b1 3e 6e f9 d1 3e 5b 4b a5 3c b0 0a a0 3d
       0.34630206 0.41010612 0.020177534 0.078145385
000200 59 eb f9 3d 01 c1 a7 be c1 95 52 bd a8 06 8e 3e
       0.12203092 -0.32764438 -0.051412348 0.27739453
000210 66 99 a1 be ce 37 58 be eb ec 9e bd 0f 6a ea bd
       -0.31562346 -0.21115038 -0.07760032 -0.1144601
000220 ca df bb bd 8a 85 e4 bd b0 34 ba bd 5f 49 7d bc
       -0.09173544 -0.11158283 -0.090920806 -0.015459388
000230 05 b7 1e 3d f9 d8 57 3f 86 da 65 3f 78 52 38 3f
       0.03874876 0.8431545 0.89786565 0.7200084
000240 8a 43 5e 3e 2c f1 94 3e a9 e2 fb 3e c1 d7 f8 3e
       0.21705452 0.2909025 0.49196365 0.48602107
000250 4b 1f cd 3e 97 1f b5 3e 53 5b 58 bf 9b 43 54 bf
       0.40062937 0.35375664 -0.8451435 -0.8291566
000260 33 b0 37 bf 1f 25 f1 3d 47 60 ee 3d 2c 17 15 be
       -0.71753234 0.117746584 0.11639457 -0.1455962
000270 47 03 b9 ba 4d 20 7c be c8 53 16 be 8f e5 8e bd
       -0.0014115357 -0.24621697 -0.14680398 -0.069773786
000280 4f 48 68 3e 7a b0 bf 3e e3 78 2d be 37 e6 0d bf
       0.22683834 0.37439328 -0.16940646 -0.55429405
000290 3d a0 b6 bc f0 89 ac be 61 2c d6 be df 1e 8c be
       -0.022293204 -0.33698988 -0.41830733 -0.27367303
0002a0 a2 ef 96 3e 13 26 e1 3e 4c c6 1a 3f 50 97 12 bf
       0.294797 0.4397436 0.60458827 -0.57262135
0002b0 e9 59 b0 be ed 8d e0 be 62 11 a7 be e5 f5 71 bd
       -0.34443596 -0.4385828 -0.3263045 -0.059072394
0002c0 57 d9 41 be 94 f6 47 be 40 35 b1 3c 32 37 84 be
       -0.18930565 -0.19527656 0.021631837 -0.2582336
0002d0 3a 83 ba 3e 39 4b 9e 3e 4c 97 f0 3e 05 b0 18 3f
       0.36428243 0.30916765 0.4699043 0.59643584
0002e0 11 a9 21 3f d8 fb 1b 3f e9 86 b0 3e 61 37 b3 3e
       0.631486 0.6093116 0.34477928 0.35003188
0002f0 17 06 79 3e 61 c2 e1 3d ca d2 1d 3e 2b 42 0a 3e
       0.2431873 0.11023403 0.15412441 0.13501804
000300 14 8b a4 be c2 44 92 3d 41 36 5b bf 0c 44 3e bd
       -0.32137358 0.07142021 -0.8562966 -0.046451613
000310 35 95 14 3d 93 9a 55 bc 0e ac 1a 3d c9 01 0d 3e
       0.036275107 -0.013037342 0.03776174 0.13770212
000320 18 65 18 3e d6 0a 26 3e 42 3d a7 bd eb 7d 8e bd
       0.14882314 0.16215071 -0.08165981 -0.06957611
000330 cb 93 42 3f 6e a5 7b 3f 0c 6f 4c 3f d4 3f 7f 3e
       0.76006764 0.982993 0.79856944 0.24926692
000340 05 5a 29 3e b0 eb fe 3d e5 ac 0a be 5f 96 2c be
       0.16538246 0.124472976 -0.13542517 -0.16854237
000350 86 f7 e5 bd c9 52 9e 3c dc fc 6c 3d bb 7a a6 3d
       -0.11228852 0.019326584 0.057858333 0.08128878
000360 cd 08 00 3e a2 08 2e 3e 66 b4 cd 3e 1d 03 2e be
       0.12503357 0.1699548 0.40176696 -0.16993375
000370 a6 98 28 bd f9 fd 12 3e a9 85 e3 bc f7 8a af bd
       -0.041161202 0.14354695 -0.027773695 -0.08571427
000380 21 49 77 be b8 9a b3 3d 76 7e 97 3d f6 90 d0 3e
       -0.2414899 0.08769745 0.073971674 0.40735596
000390 90 50 d9 bc a2 96 f7 3d e0 25 33 bc 49 e5 f3 be
       -0.026527673 0.12089278 -0.010934323 -0.47635868
0003a0 6c 23 19 bf 25 94 ed be d5 34 0d 3f 0a 86 ab 3e
       -0.59819674 -0.46402088 0.5515874 0.335007
0003b0 89 ee 05 3f 02 55 08 bf 2e 6f f7 be 98 71 b7 be
       0.523171 -0.5325471 -0.4832701 -0.35828853
0003c0 48 2e 21 bf 1f 76 0e bf ef 3d 3e bf c1 5f 0f 3f
       -0.62961245 -0.5564899 -0.74313253 0.56005484
0003d0 15 3f 26 3f a4 68 c8 3e 77 1f a8 bd 4d 2a b4 be
       0.64940006 0.39142334 -0.082091264 -0.35188523
0003e0 42 78 52 be 92 f6 c3 be bc c0 e3 be c0 07 a9 be
       -0.20553687 -0.38274056 -0.44482982 -0.33013725
0003f0 c8 9f ee 3e be db 8a 3e 05 01 60 3e 7e f9 00 3e
       0.46606278 0.27120775 0.21875389 0.12595174

q_net.q_net.0.bias f4 [32]
000000 76 e8 86 3e 68 a2 1d 3f 07 85 e9 3e 9d 8b 8c 3e
       0.2634923 0.6157594 0.45609304 0.27450266
000010 49 07 8e 3e 44 94 03 3d dd 2f 7c bd 84 15 3a 3f
       0.27739933 0.03212382 -0.061569083 0.7268908
000020 ab 4d 1d 3d b6 2e 54 bc c8 92 a4 3e 7a 2f 72 be
       0.038404148 -0.01295059 0.32143235 -0.23650923
000030 cf 19 ce 3e 50 bc 36 3d 18 cb 11 bf ee 3b d9 3e
       0.40254065 0.044613183 -0.5695052 0.42428535
000040 6d 97 9e 3e 1b e8 77 3e 58 46 26 3e 9d 91 f2 3c
       0.30974904 0.24209635 0.16237772 0.02961045
000050 e3 bd 53 3d 5b 20 22 3f 5c 63 4c 3f 63 cc 02 bd
       0.051694762 0.6333062 0.7983911 -0.0319332
000060 da c6 0d 3f 8b aa 12 3d 2d b3 40 3e 9d 57 16 be
       0.5538155 0.035807174 0.1881835 -0.1468186
000070 34 32 11 3f 30 c9 85 3e 49 9e 1e 3f 62 d0 39 bc
       0.5671723 0.26130056 0.61960274 -0.011341186

q_net.q_net.2.weight f4 [32, 32]
000000 02 1b 65 3e d1 55 d3 3e 98 1e 35 3e 26 be ea 3d
       0.22373584 0.4127641 0.17687452 0.11462049
000010 af fd 23 3c a3 56 5e bf f2 76 94 3d 66 c1 8c bd
       0.010009213 -0.8685095 0.072492495 -0.06872825
000020 57 81 9f 3c 79 eb 9a be fc af 66 3e fa 85 b4 bf
       0.019470854 -0.30257776 0.2252807 -1.4103386
000030 18 b1 d1 bd 4d eb a6 c0 4c 93 84 bf 40 12 e3 3d
       -0.10238856 -5.2162232 -1.0357451 0.11087465
000040 e8 38 96 3e 59 eb 8d 3e aa 24 28 be 53 5a a5 be
       0.2934029 0.2771862 -0.16420236 -0.32295474
000050 a2 77 f9 3d b4 03 b8 3e 9a b0 d5 3e 77 78 6c 3d
       0.12181021 0.35940325 0.417363 0.05773207
000060 19 a3 46 3d 42 b3 03 3e 2b e7 41 3e b3 22 9d 3d
       0.048495386 0.1286135 0.1893584 0.07672634
000070 61 e3 4b 3e 69 92 0c c0 bf e3 9d 3e 11 6b a4 3e
       0.19910957 -2.1964362 0.3083782 0.32112935
000080 fc 52 25 bf 8c aa 7d be ba eb 98 bf 4e 13 9c be
       -0.6457975 -0.2477209 -1.1946938 -0.30483478
000090 74 ac 2f bf 74 e8 a8 be 44 91 9f be 33 3b f8 3e
       -0.6862252 -0.32989848 -0.31165516 0.48482665
0000a0 1d 27 c8 3d 60 9e 7e be 9e 68 bb 3d 42 78 78 3e
       0.09773085 -0.24865103 0.091508135 0.24264625
0000b0 66 9c 28 be b3 f9 a4 bc b2 c9 16 bf 63 f5 8e 3e
       -0.16465911 -0.020138597 -0.5890151 0.2792159
0000c0 81 95 49 bf cd 21 ed 3d b6 f5 d9 3e e9 53 52 be
       -0.7874375 0.115787126 0.42570275 -0.20539822
0000d0 7f a9 8c bd 05 da 1a 3f 33 dc 99 bd 3d a5 8d 3e
       -0.06868266 0.6048892 -0.07512703 0.2766513
0000e0 67 ce 9d 3d 64 bd ab be 2d c3 c4 be be 91 08 bf
       0.07705384 -0.3354293 -0.38430157 -0.53347385
0000f0 60 f7 1e 3e 36 46 cd bd c2 87 87 3d bc 3a 11 bd
       0.15524054 -0.10023157 0.066176906 -0.035456404
000100 b5 d3 f0 be c6 82 c3 3e 2a 44 c4 3d 37 49 94 3e
       -0.4703652 0.3818571 0.09583314 0.28962108
000110 d5 12 37 3e d1 65 a5 3e 15 a0 5b 3e b6 ec b7 3e
       0.17878278 0.32304242 0.21447785 0.35922784
000120 0d 44 46 c0 54 d1 00 3f ce d9 41 3c 71 79 ba 3e
       -3.0979035 0.5031941 0.011831714 0.36420777
000130 b9 b9 62 3e c9 06 54 be 8f e4 01 be 8b b1 76 3d
       0.2214116 -0.20705713 -0.12684844 0.060227912
000140 94 3b 18 be f8 01 9d bd 3b 38 c4 be b3 b3 31 3f
       -0.14866477 -0.07666391 -0.3832415 0.69414824
000150 a2 52 4d bd a9 a0 a6 3e 58 b9 35 bf 0d 27 c0 3e
       -0.050127633 0.3254445 -0.7098594 0.37529793
000160 ed 05 c9 3d 1e 5b 35 3e e5 7e 90 be 70 17 be bc
       0.098155834 0.1771054 -0.28221813 -0.023204535
000170 f8 a1 5d be a3 3a 59 be 1a b8 52 3e 94 59 e2 be
       -0.21643817 -0.21213774 0.20578042 -0.44208968
000180 5d da 9a 3e 1f 36 4c 3f 3f 16 23 3e c9 ad 8a 3d
       0.30244723 0.7977008 0.15926455 0.06771428
000190 02 1b 40 3e 5f 01 11 c0 11 0e 38 be 3d f7 b8 3e
       0.18760303 -2.2657087 -0.17974116 0.36126128
0001a0 f8 79 d3 3e 14 04 17 3f 19 eb dd be 31 e4 58 c0
       0.41303992 0.589906 -0.43343428 -3.3889277
0001b0 34 59 0d 3d c2 3b 40 3f 25 2c e1 be 47 e7 50 3e
       0.0345089 0.75091183 -0.43978992 0.20400725
0001c0 8d 4c 10 3e d7 85 cc be b8 b0 93 3e 0c 4b 08 bd
       0.14091702 -0.39945862 0.28845763 -0.033274695
0001d0 fa 97 b2 be 99 ec 64 3e 31 22 02 bf 9f 6f 10 bc
       -0.34881574 0.2235588 -0.5083342 -0.008815675
0001e0 5c e8 72 bd ae d8 cf bd fd d5 7c 3d 57 ea b2 3c
       -0.059303626 -0.1014875 0.061727513 0.021840258
0001f0 b8 e8 ff bc 8e 54 2d c0 75 10 2b bd 1a 5c 4d bc
       -0.031238899 -2.7082858 -0.04176374 -0.012534166
000200 e2 c7 71 be b7 13 fe 3e b5 5d 45 be 92 9b c4 3e
       -0.23611405 0.49624416 -0.19274028 0.3839994
000210 3c 15 31 3f bf b2 44 3c 9a 30 19 be bd a1 85 3d
       0.69173026 0.012005507 -0.14959946 0.0652499
000220 50 82 68 be 7c 3d fe 3b 58 8b b8 3e 59 48 14 be
       -0.2270596 0.0077587944 0.3604381 -0.14480723
000230 2e 5e 0a 3e 32 b4 de 3e 6d 63 84 bc c3 c3 dd bd
       0.13512489 0.43496853 -0.016160691 -0.10828354
000240 93 c6 af be 99 56 3a 3e 3f c7 38 be 97 b1 8f bb
       -0.34331188 0.18197097 -0.18044756 -0.004385184
000250 78 4c 8f 3e e2 91 d2 bd 3c f3 90 3e 7b 3c 37 3f
       0.2798803 -0.10281731 0.28310573 0.7157666
000260 a5 8f 32 bf 7b 32 1b bd 29 2a 20 3f 71 0e db bd
       -0.69750434 -0.03788994 0.6256433 -0.10696114
000270 cf 4e 70 be 64 2c f4 be 3a d0 d5 bd e8 2d 4a 3f
       -0.23467563 -0.47690117 -0.10440107 0.789763
000280 c5 4a e6 3e b0 6d 28 3f b6 06 a1 3e 8a 34 65 bd
       0.4497892 0.6579237 0.31450433 -0.05595831
000290 32 93 4e 3d 5d 3c a4 be b6 fc a0 3e 35 6c e3 bd
       0.050433345 -0.32077304 0.31442803 -0.11104623
0002a0 ab fe 00 bd 2a b7 b6 3e 46 02 f6 3e 9d 6b 9e 3e
       -0.03149287 0.35686618 0.4804861 0.30941477
0002b0 88 11 06 bf 10 21 2e bd f6 8c 39 3e 32 f2 a9 3d
       -0.523705 -0.042512 0.18120179 0.08298148
0002c0 a8 b5 c9 3e 27 78 d7 3e 9d 10 e0 3e f9 e5 c9 bc
       0.39396405 0.42083856 0.43762675 -0.024645792
0002d0 c8 bb 06 3d 9b b0 68 be 22 73 48 be e8 c3 55 be
       0.032893926 -0.2272362 -0.1957517 -0.20875514
0002e0 6a b6 d2 3e 7c bf 78 be c5 c4 29 be c1 b5 ee bd
       0.41154796 -0.24291795 -0.16578968 -0.116557606
0002f0 ea e1 73 3f a4 76 2c 3e 8f e1 8b be 66 27 3d 3e
       0.9526659 0.16842133 -0.27320525 0.1847206
000300 53 99 90 be 3f 08 5c be 6b 50 10 3d 49 3f a0 3e
       -0.28241977 -0.2148752 0.035232943 0.31298283
000310 93 9a eb bd b0 2b a6 3e 25 db 24 bf 36 08 4a 3e
       -0.11504092 0.32455206 -0.6439689 0.19729695
000320 0d 75 f2 bd e3 78 6d bf 1f 58 04 3e 6a e4 8c 3d
       -0.11838732 -0.92762583 0.1292424 0.06879504
000330 43 a8 f2 bd 6e c6 78 be 59 a4 e0 3c 5b 44 61 bc
       -0.118484996 -0.24294445 0.027422117 -0.013749207
000340 0d e3 e7 bd da f0 61 3e 83 2a 9f be 3a 21 c4 be
       -0.113226034 0.22064534 -0.3108712 -0.383066
000350 e2 44 55 3e 2f 2d 11 3f 94 d0 94 bf 9f 5b 44 3e
       0.20827058 0.5670957 -1.1626153 0.19175576
000360 09 08 fa 3d c8 1a a2 3e 00 80 4b 3e 7f a2 af bd
       0.12208564 0.31661057 0.19873047 -0.085759155
000370 8d df 99 be 54 be 6f 3d 2f f7 ff 3e 38 d4 bd be
       -0.30053368 0.05853112 0.49993274 -0.37075973
000380 5a 61 7d be 89 2b 9c be 21 41 d9 3d ba 01 bc 3e
       -0.24744168 -0.30501965 0.106081255 0.36720067
000390 7b f0 ab bd 72 69 ad 3b 0f ca 93 3b 6d 6e 31 3f
       -0.083954774 0.005292111 0.0045101712 0.6930912
0003a0 f3 e7 6f 3d 2f d2 13 3d 18 24 32 3d ff 5f 01 bf
       0.058570813 0.03608912 0.043491453 -0.50537103
0003b0 0b 44 12 be dd d3 c9 bf 0d 67 b7 3e 1c f3 fd bd
       -0.14283769 -1.576778 0.3582081 -0.12399885
0003c0 c5 f1 ff be c4 88 df 3e d8 a4 97 bc 59 97 c3 bd
       -0.49989143 0.4365903 -0.01851122 -0.09550352
0003d0 58 c4 27 be be 7b 42 3e 70 e8 f3 bd 35 50 f3 3e
       -0.16383493 0.18992516 -0.11909568 0.4752213
0003e0 ba c6 8f 3e 33 25 08 3d 82 23 c4 be 57 85 5d 3e
       0.28081304 0.0332386 -0.3830834 0.21632896
0003f0 81 4b ee 3e a6 87 6f c0 d6 be 8e bd e9 cf 79 be
       0.4654198 -3.7426543 -0.06969993 -0.24395718

q_net.q_net.2.bias f4 [32]
000000 60 82 fb 3e e6 6b df 3e 66 a5 6b 3e 5f 3c 4a 3e
       0.49122906 0.43637007 0.23012313 0.19749592
000010 8e ae a0 bd cc 52 10 3e e3 91 ca 3e 4c ea 05 3e
       -0.07845794 0.14094085 0.39564428 0.13077658
000020 3f 54 42 3d fa 4e 83 3e 58 7e aa 3d d6 f5 54 3e
       0.047443625 0.25646192 0.083248794 0.20796904
000030 9c 5f d6 bd 73 d6 8c 3e 20 f9 89 3d 3a 2a ab 3e
       -0.10467455 0.27507362 0.0673697 0.33430654
000040 48 1b 06 3e f7 a4 89 3a e8 a6 53 3c 2c 41 96 3e
       0.13096344 0.0010501434 0.0129182115 0.29346597
000050 b1 15 46 3b 7d 17 0f 3e 6d 06 1a be 62 c1 fa 3d
       0.0030225331 0.13973804 -0.15041514 0.12243916
000060 16 cf 12 3e 92 75 20 3e af af 89 3e 22 3f 07 3f
       0.1433681 0.1566985 0.26891848 0.5283071
000070 e6 4d 89 3e 6f a9 e0 3e 27 bd c0 bd 24 84 65 3e
       0.26817244 0.43879268 -0.09411078 0.22413689

q_net.q_net.4.weight f4 [4, 32]
000000 fe 72 7b 3f b0 f4 63 3e 2a c2 2a 3f 4a e7 08 bf
       0.9822234 0.2226131 0.6670252 -0.5347792
000010 87 3d 0d c0 0c 84 85 bd e7 7e 10 3f fb f2 ec be
       -2.2068803 -0.065193266 0.5644364 -0.4627913
000020 03 4c 3b 3e 7d 26 eb be c4 1a c8 3f b1 9f 65 3f
       0.18290715 -0.45927802 1.5633168 0.89696795
000030 ad 13 c3 3f bd 54 41 bf f0 fa 3b bf 05 bf e1 bf
       1.524038 -0.75519925 -0.73429775 -1.763642
000040 10 5c 82 3d 4e 96 91 bf ab 84 3b 3f bb 96 e3 3e
       0.06365216 -1.1373994 0.7324931 0.44450936
000050 5e 5f 0a bf 69 cf 60 3f f4 0b 07 40 0d 92 82 be
       -0.5405177 0.8781648 2.1101046 -0.25502053
000060 ba 94 ed be b5 e5 d8 3e 09 ea e8 bf c6 96 51 3f
       -0.46402532 0.42362753 -1.8196422 0.81870687
000070 8f af f0 3f 89 16 8d 3f 73 24 f2 3e 87 f6 91 3f
       1.8803576 1.1022502 0.47293434 1.1403359
000080 4a bc 62 3f 95 66 ab 3d 96 b7 5d bf 09 5a b6 bf
       0.88568556 0.08369175 -0.86608255 -1.4246227
000090 e0 20 cb 3e 0a fa 35 be 53 4a 12 be 6a 12 76 bf
       0.3967352 -0.17771164 -0.14286165 -0.9612185
0000a0 c5 76 a6 3c 83 82 28 3e 3a 56 f1 be 0c b7 97 3e
       0.020320306 0.16456036 -0.47136098 0.2963184
0000b0 59 c6 20 3e 7b d4 91 bf c7 fa 89 bf 21 4b ca 3d
       0.15700664 -1.1392969 -1.0779656 0.09877611
0000c0 3e 60 30 c0 67 55 59 be b4 b4 58 3f 27 08 e8 3f
       -2.7558742 -0.21223985 0.8465073 1.8127488
0000d0 0d a8 98 3f f7 f2 73 be 08 46 79 3f 4e 3a 8f bf
       1.1926285 -0.23823152 0.97372484 -1.1189668
0000e0 f6 ba 82 3f 72 3b ef be 0a 33 57 3e a9 5c 70 3f
       1.0213306 -0.4672504 0.21015564 0.9389139
0000f0 33 b2 5b 3f 35 f7 ec 3f 5a 44 48 be d1 33 54 3f
       0.85818785 1.8512942 -0.19557324 0.82891566
000100 02 cd 41 bf 60 51 c1 bf 0d 8e b2 3f 68 47 94 bf
       -0.7570344 -1.5102959 1.39496 -1.1584291
000110 11 c0 c6 3d bc aa 10 bf 80 16 10 40 6d c3 9b 3e
       0.097046025 -0.5651052 2.2513733 0.30422536
000120 fe cf 0d 3f 21 b4 10 bf 8a 14 40 bf 48 45 76 3f
       0.55395496 -0.56524855 -0.7503134 0.96199465
000130 0a ed 6e bf 3c e6 3d 3e 5a e0 5c bf 37 a2 f5 3e
       -0.9333044 0.18544859 -0.86279833 0.47975323
000140 d6 b1 39 3f 8f 38 92 bf e9 9f e0 3f b3 cd 02 be
       0.7253698 -1.142351 1.7548801 -0.1277378
000150 62 12 4f 3f a9 2f 5b 3f c9 e6 de 3e e5 29 0c be
       0.80887425 0.856196 0.4353545 -0.13687856
000160 75 ac 2f 3f 29 75 e5 be 67 c7 83 3e ec 88 af 3f
       0.68622524 -0.4481595 0.2573807 1.371366
000170 16 02 a9 3f 51 f9 37 3f ec 7d 1d 3f 03 07 9f 3d
       1.3203762 0.718648 0.61520267 0.07765009
000180 fd 19 f5 3d 0a 63 9a bf 8a 50 91 bf 10 f0 e8 3e
       0.119678475 -1.2061474 -1.1352704 0.45495653
000190 9c 93 b0 3e 33 7c 15 3f 8e 88 0a 3e af e4 18 bf
       0.34487617 0.5839264 0.13528654 -0.59723943
0001a0 2f ab 74 be 5e 6f 49 bf d0 d3 10 bf 0e fe af 3f
       -0.23893426 -0.7868556 -0.565732 1.3749406
0001b0 bc 5d 94 be 80 87 96 3e 61 2e ce be 9a e6 fc 3e
       -0.28977764 0.29400253 -0.4026976 0.49394685
0001c0 b1 db 2f 3f 96 95 ec be e8 a0 9f 3f 80 67 4c 3f
       0.686946 -0.46207875 1.247098 0.7984543
0001d0 eb 34 10 bf 76 ee 34 bf 84 a0 e1 3f fc bd 2c bf
       -0.56330746 -0.7067636 1.762711 -0.67477393
0001e0 77 89 d5 3f 8a cc 4f bf 67 d8 80 3e db b2 80 3f
       1.6682576 -0.81171477 0.25165102 1.0054582
0001f0 16 44 40 3f 9f 93 17 bd 5b 28 11 3f 76 95 e0 3e
       0.7510389 -0.037006017 0.567022 0.4386403

q_net.q_net.4.bias f4 [4]
000000 7c 69 99 be 45 ca d4 bc eb fa 37 be 70 4d 40 be
       -0.2996329 -0.025975356 -0.17966811 -0.1877954

q_net_target.q_net.0.weight f4 [32, 33]
000000 62 a1 74 3d 33 1c 1e 3e 62 71 a8 bd 49 65 4a be
       0.05972422 0.15440445 -0.08224751 -0.197652
000010 32 dd 0b be 2d 3b bb bc f3 d3 04 bd e2 4e df 3d
       -0.13658598 -0.022855366 -0.032428693 0.109037176
000020 e3 ff 35 bd 0c 91 8c 3e 9d 13 34 3e ed e7 46 3e
       -0.044433486 0.27454412 0.17585607 0.1942441
000030 86 cc 3f bd fd 74 89 3b 74 7a 43 3d 5d 6d ce 3e
       -0.046825908 0.0041948543 0.047724202 0.40317813
000040 bb 5c ee 3e 2b 4e 00 3f 7c 29 09 bf 97 b6 fc be
       0.46555123 0.50119275 -0.53578925 -0.49358055
000050 aa 89 b5 be 86 54 a1 3b bb a8 33 be a4 6d 19 bc
       -0.35456592 0.004923406 -0.17544834 -0.009364519
000060 35 3f 8e 3e 49 0b a6 3e 23 53 ed 3e 25 03 03 be
       0.27782598 0.32430485 0.4635249 -0.12794168
000070 7b d9 a1 3d ea 21 9a bd 56 af a9 3e a4 2e 22 bd
       0.07902809 -0.07526 0.33141583 -0.03959526
000080 ec b5 28 bf 39 ac 63 be 06 14 87 be d7 47 9c be
       -0.6590259 -0.22233666 -0.26382464 -0.3052356
000090 eb 0d 41 bc 60 36 75 3e 0b 8a 2b 3e a4 b5 8d be
       -0.011783103 0.23946524 0.16751878 -0.27677643
0000a0 f3 37 b4 be a9 99 e6 be f3 c5 9b 3c 46 1e 31 be
       -0.35198936 -0.45039108 0.019015288 -0.17296705
0000b0 fc 7c 0b be 17 74 ea 3e 31 52 28 3f 22 55 26 3f
       -0.13621897 0.45791695 0.65750414 0.6497365
0000c0 ef 27 10 bf 06 01 fc be 35 c9 bf be 66 b7 98 3e
       -0.56310934 -0.4921953 -0.37458196 0.29827422
0000d0 de f9 46 3e c6 4e 18 3e 38 21 0c bf ab 3f 44 bf
       0.19431254 0.148738 -0.5473819 -0.7665965
0000e0 5f b4 21 bf 85 90 4f bf 9b e6 4b bf 8d 09 44 bf
       -0.6316585 -0.81079894 -0.7964875 -0.76577073
0000f0 bb ec f1 bb cb 88 c7 bd c7 59 5d 3c a7 d4 4d bd
       -0.007382957 -0.09742888 0.013510174 -0.05025163
000100 d6 c1 a2 3c fa 01 c7 3d 88 bc 43 bd 23 fc 66 bc
       0.019867819 0.09717174 -0.04778722 -0.0140982
000110 6d 5f 5b 3d 6a 69 e5 3e cb 4a 16 3e 65 59 5e 3e
       0.053557802 0.44806987 0.14676969 0.21713789
000120 95 7a 94 be a5 51 5b be ee e3 53 be f7 f3 23 bf
       -0.28999773 -0.21417864 -0.20692417 -0.64044136
000130 43 68 42 bf 37 08 72 bf bf fe a6 3e 89 14 4e 3e
       -0.7594034 -0.94543785 0.3261623 0.20125021
000140 a1 78 17 3e 99 2e a3 3e b8 c2 97 3e d1 23 1d bc
       0.1479211 0.3187149 0.29640746 -0.009591059
000150 18 93 5c 3c 0e 78 46 bd 59 b0 43 bd a8 cf cb 3d
       0.013462804 -0.048454337 -0.0477756 0.09951717
000160 3f 0e 7c 3e d1 da 9b 3d 9d b5 8d bc 25 b5 e2 3b
       0.2461481 0.07610095 -0.017298514 0.0069185668
000170 7a 2e 32 3d 39 8f 3d bb 66 57 11 3e ba 87 77 be
       0.043501355 -0.0028924479 0.14193496 -0.2417287
000180 25 b6 81 3e 61 45 3d 3e 11 0a 4c bf 41 63 af 3d
       0.25334278 0.18483497 -0.7970286 0.08563853
000190 88 02 b3 3e cc 37 9b 3e 47 66 c4 3d d1 0e 03 3e
       0.3496287 0.30316007 0.0958982 0.12798621
0001a0 8b ac c3 3b bb ba ba be 9a 3e fc be 51 e1 fd be
       0.0059714965 -0.3647059 -0.4926651 -0.49585965
0001b0 8e 4f 44 3e 86 e3 68 3e cc 20 05 3e 49 1b e1 3e
       0.19170973 0.22743043 0.13000792 0.4396613
0001c0 02 f9 6b 3e 9a 16 fd 3e 6d 45 c9 3f 73 36 a7 3f
       0.23044208 0.49431306 1.5724312 1.3063492
0001d0 5c 74 b4 3f 00 aa 33 bf 1b 2c 2f bf 29 1b 2b bf
       1.409801 -0.70181274 -0.68426675 -0.6683832
0001e0 f3 19 ca 3e fe 74 ac 3e e3 42 77 3e a2 29 19 3f
       0.39472923 0.33683008 0.24146609 0.5982915
0001f0 e0 a6 b2 3e cd 51 d3 3e 8e b6 a6 3c 1c d0 9e 3d
       0.3489294 0.41273347 0.02035072 0.077545375
000200 e1 e8 fa 3d ec dc a7 be de 96 52 bd d5 a0 8d 3e
       0.122514494 -0.32785738 -0.05141341 0.27661768
000210 49 95 a4 be 8c 2f 5e be 7f dc aa bd 87 aa ed bd
       -0.32145146 -0.21697825 -0.083428375 -0.11604791
000220 42 20 bf bd 02 c6 e7 bd b8 7c b6 bd 52 8a 5f bc
       -0.093323246 -0.11317064 -0.08910507 -0.013643818
000230 bf 26 26 3d 5e 6b 56 3f eb 6c 64 3f dd e4 36 3f
       0.040564295 0.8375758 0.89228696 0.7144297
000240 6d a0 5f 3e 8d 9f 95 3e 0a 91 fc 3e f4 57 f9 3e
       0.21838541 0.2922329 0.49329406 0.48699915
000250 7e 9f cd 3e ca 9f b5 3e 42 10 5a bf 8a f8 55 bf
       0.40160745 0.35473472 -0.8518106 -0.83582366
000260 22 65 39 bf 69 8d e6 3d 91 c8 e3 3d 11 63 1a be
       -0.7241994 0.112574406 0.111222394 -0.15076853
000270 c0 cd 0f 3b 0d 6f 78 be 88 a2 12 be c1 e6 8e bd
       0.0021942705 -0.24261113 -0.14319813 -0.069776066
000280 e8 f1 66 3e 91 39 bf 3e 51 3a 2e be 59 38 0e bf
       0.22553217 0.37348607 -0.17014433 -0.5555473
000290 e2 37 b8 bc ce 90 ab be 3f 33 d5 be bd 25 8b be
       -0.022487585 -0.33508915 -0.4164066 -0.2717723
0002a0 29 07 98 3e 9a 3d e2 3e 0b 52 1b 3f 39 ee 13 bf
       0.29692963 0.44187623 0.6067206 -0.57785374
0002b0 cb 07 b3 be cf 3b e3 be d2 78 a7 be c3 31 75 bd
       -0.34966883 -0.44381568 -0.32709366 -0.05986191
0002c0 32 a8 42 be 9b b5 45 be 7b 3c c3 3c af 16 83 be
       -0.19009474 -0.19307558 0.02383255 -0.25603244
0002d0 91 6d b9 3e 90 35 9d 3e a3 81 ef 3e 42 ef 17 3f
       0.36216405 0.30704927 0.46778592 0.59349453
0002e0 4e e8 20 3f 15 3b 1b 3f 88 a2 ae 3e 00 53 b1 3e
       0.6285447 0.6063703 0.34108377 0.34633636
0002f0 4a 3d 75 3e 33 26 d9 3d 9a 84 19 3e fb f3 05 3e
       0.23949161 0.10602989 0.1499199 0.13081352
000300 d3 55 a4 be 0f e4 8c 3d 77 13 5b bf dd 07 45 bd
       -0.3209673 0.06879436 -0.85576576 -0.048103202
000310 bb fd 12 3d 3b 2e 64 bc 78 7c 20 3d d7 75 0e 3e
       0.035886507 -0.013927038 0.039181203 0.1391214
000320 26 d9 19 3e 10 d5 27 3e d2 a8 a3 bd 7b e9 8a bd
       0.15024242 0.1638987 -0.07991184 -0.06782814
000330 d0 3a 41 3f 73 4c 7a 3f 11 16 4b 3f 39 2a 80 3e
       0.75480366 0.977729 0.79330546 0.25032213
000340 90 6e 2a 3e 6b 8a 00 3e 67 0a 0d be e1 f3 2e be
       0.16643739 0.12552802 -0.137735 -0.1708522
000350 79 b2 ea bd 53 1f 8d 3c 0c 63 64 3d e7 2d a2 3d
       -0.11459822 0.01722685 0.05575852 0.079189114
000360 d0 90 02 3e a0 90 30 3e 45 f8 ce 3e 00 11 29 be
       0.12750554 0.1724267 0.4042379 -0.16510391
000370 e0 cf 14 bd 16 f0 17 3e c2 04 ea bc c3 2a b1 bd
       -0.036331058 0.1483768 -0.028566722 -0.08650734
000380 10 19 78 be 10 d6 b4 3d 2e b0 97 3d 0f 76 d0 3e
       -0.2422831 0.08829892 0.074066505 0.40715072
000390 c6 25 db bc d5 36 f5 3d 62 29 3c bc e3 09 f5 be
       -0.02675141 0.11973349 -0.011484476 -0.47859105
0003a0 ae b5 19 bf bf b8 ee be 01 61 0d 3f 46 de ab 3e
       -0.60042846 -0.46625325 0.5522614 0.3356802
0003b0 b5 1a 06 3f f0 b2 08 bf 55 2b f8 be bf 2d b8 be
       0.523845 -0.53398037 -0.4847056 -0.35972401
0003c0 a6 06 21 bf 7d 4e 0e bf 4d 16 3e bf 52 61 0f 3f
       -0.6290077 -0.55588514 -0.7425278 0.56007874
0003d0 a6 40 26 3f cf 6b c8 3e 8e 9e a4 bd 21 4a b3 be
       0.64942396 0.3914475 -0.080380544 -0.35017493
0003e0 b3 b7 50 be 3d 37 c2 be 67 01 e2 be 6b 48 a7 be
       -0.20382576 -0.37932768 -0.44141695 -0.32672438
0003f0 d1 ab f0 3e c7 e7 8c 3e 63 19 64 3e ce a3 05 3e
       0.47006086 0.27520582 0.2227531 0.13050768

q_net_target.q_net.0.bias f4 [32]
000000 bd 5f 86 3e a5 76 1d 3f bf e1 e9 3e 23 ac 8d 3e
       0.26244918 0.6150916 0.45680043 0.27670392
000010 aa b5 8e 3e d4 97 0c 3d d5 d2 82 bd 15 17 3a 3f
       0.27872974 0.034324482 -0.06387869 0.7269147
000020 bb f7 1b 3d 79 4c 76 bc 5b 5d a5 3e 91 fc 72 be
       0.03807805 -0.015032881 0.32297787 -0.23729159
000030 03 29 ce 3e d5 01 38 3d af 92 11 bf 9c b8 d9 3e
       0.40265664 0.044923622 -0.56864446 0.42523658
000040 67 b7 9d 3e 27 28 78 3e 55 33 2a 3e a4 93 e3 3c
       0.30803987 0.24234067 0.16621144 0.027780361
000050 54 d3 4b 3d 98 69 22 3f 65 61 4c 3f b4 96 02 bd
       0.049762085 0.63442373 0.7983611 -0.031882003
000060 eb b9 0d 3f d1 4f 1f 3d ab bb 3f 3e 24 0a 14 be
       0.55361813 0.03889448 0.18723933 -0.14456993
000070 45 72 11 3f d7 9b 86 3e 41 a7 1e 3f fb e0 1f bc
       0.56814986 0.2629077 0.6197396 -0.009758229

q_net_target.q_net.2.weight f4 [32, 32]
000000 68 6f 62 3e 7b c8 d4 3e 8c 5e 35 3e 59 de e6 3d
       0.2211281 0.41559204 0.17711848 0.11272878
000010 25 6f 2a 3c d5 d3 5d bf aa ab 91 3d ad 28 8e bd
       0.0104024755 -0.86651355 0.071128204 -0.06941352
000020 6c f4 a0 3c 83 b7 9c be a8 b3 67 3e 0a 0f b5 bf
       0.0196478 -0.30608758 0.22627127 -1.4145215
000030 51 ee d0 bd 17 90 a6 c0 55 bf 85 bf 32 2a e0 3d
       -0.10201705 -5.205089 -1.0449015 0.10945548
000040 a0 b6 95 3e f8 ff 8c 3e 13 7d 29 be 5c 14 a5 be
       0.29240894 0.2753904 -0.16551618 -0.32242095
000050 db bb fb 3d 08 b9 b7 3e 08 59 d5 3e 2c fa 66 3d
       0.1229169 0.35883355 0.41669488 0.056390926
000060 3b d8 3f 3d a3 b5 03 3e 3d 3e 40 3e 95 b7 9d 3d
       0.046837073 0.12862258 0.18773742 0.07701031
000070 72 db 4c 3e d9 f9 0c c0 ea 0e 9e 3e 7c bd a3 3e
       0.20005587 -2.2027495 0.30870754 0.31980503
000080 06 e1 27 bf c5 12 7d be b4 1b 9a bf 78 bc 9d be
       -0.65577734 -0.24714191 -1.2039704 -0.30807853
000090 53 76 31 bf ca 7d a9 be ad b8 9c be 5a 48 f5 3e
       -0.69321173 -0.33103782 -0.30609646 0.47906762
0000a0 ed 68 cb 3d d7 f1 81 be 1b ce be 3d b2 00 71 3e
       0.099321224 -0.25379822 0.09316655 0.23535421
0000b0 28 d8 29 be f5 48 85 bc 7a 86 12 bf d3 b8 8e 3e
       -0.16586363 -0.01627014 -0.57236445 0.27875385
0000c0 6b 7a 49 bf 1a 2f ec 3d ef 80 da 3e 39 50 51 be
       -0.7870242 0.115324214 0.42676494 -0.20440759
0000d0 58 ee 86 bd 4a ed 1a 3f 34 e6 a4 bd eb 17 8a 3e
       -0.06588429 0.60518324 -0.0805172 0.26971373
0000e0 e2 11 9e 3d 4f a8 ab be 3b f8 c2 be 49 5c 09 bf
       0.077182546 -0.33526847 -0.3808001 -0.5365644
0000f0 96 3a 1c 3e 9c 17 db bd e7 8c 83 3d a8 f7 de bc
       0.15256724 -0.106978625 0.06423359 -0.027217701
000100 73 00 ef be 34 d9 c2 3e b4 b2 c8 3d f9 0f 95 3e
       -0.4668003 0.38056338 0.0979971 0.2911375
000110 55 61 3a 3e f9 1e a6 3e 29 9d 5c 3e d0 86 b8 3e
       0.18201192 0.32445505 0.21544327 0.36040354
000120 37 56 46 c0 98 28 00 3f f5 e2 5c 3c 75 d5 ba 3e
       -3.0990121 0.5006194 0.013481845 0.3649098
000130 9a 54 65 3e e8 a4 52 be 15 06 02 be f5 6b 71 3d
       0.22395554 -0.20570719 -0.12697633 0.058940846
000140 94 2e 14 be e6 29 9b bd 51 15 c6 be 8d cb 31 3f
       -0.14470893 -0.07576351 -0.38688138 0.6945122
000150 c7 f3 4b bd 60 0a a7 3e 1f 64 35 bf 97 fa be 3e
       -0.04979303 0.32625103 -0.708559 0.3730056
000160 6c ee c7 3d 67 0c 36 3e c7 2e 91 be fa 49 b0 bc
       0.09762272 0.17778169 -0.28356 -0.02151965
000170 71 d4 5c be 80 ba 57 be 40 53 52 3e c1 0a df be
       -0.21565415 -0.21067238 0.2053957 -0.43562892
000180 e9 f9 9b 3e 93 a8 4b 3f 55 c8 21 3e aa 22 8a 3d
       0.30464104 0.795541 0.15799077 0.06744893
000190 b4 63 42 3e 44 fd 10 c0 3e 95 38 be 50 8b ba 3e
       0.18983346 -2.265458 -0.18025681 0.36434412
0001a0 f4 bd d3 3e 13 1b 17 3f 92 14 df be 7d 79 57 c0
       0.4135586 0.59025687 -0.4357038 -3.36679
0001b0 f7 8b 0a 3d c9 e6 3b 3f f8 4c dc be be c5 4e 3e
       0.033824887 0.73399025 -0.43027472 0.2019262
0001c0 e0 25 11 3e eb 2b ce be 27 28 92 3e 9a ac 06 bd
       0.14174604 -0.40267882 0.2854626 -0.03287945
0001d0 66 22 b2 be 1c ad 63 3e 47 ad 01 bf 0b 75 5e bb
       -0.3479187 0.22234005 -0.50655025 -0.0033944275
0001e0 9f a1 7a bd 44 29 d4 bd bb a4 81 3d 8b 8b a6 3c
       -0.06118929 -0.10359433 0.06330248 0.020330211
0001f0 6d fd 06 bd e1 22 2c c0 23 f1 2c bd e0 01 81 bc
       -0.03295653 -2.6896288 -0.042222153 -0.015747964
000200 ae 3d 75 be 1b 49 ff 3e 2f f4 44 be 42 16 c3 3e
       -0.2394931 0.49860463 -0.19233774 0.3810292
000210 4e 90 30 3f 47 f8 69 3c c4 8d 16 be 80 29 86 3d
       0.6897019 0.014280385 -0.14702517 0.06550884
000220 bc e1 69 be 14 a3 91 3b 5a 1a b9 3e 64 bb 12 be
       -0.22840017 0.0044444893 0.36152917 -0.14329296
000230 2a 0c 0a 3e b6 90 df 3e 18 0e 8c bc f9 d1 de bd
       0.13481203 0.43665093 -0.017096564 -0.10879893
000240 e9 c4 ae be 86 a6 39 3e 7a a8 38 be 17 3e e1 bb
       -0.34134606 0.1812993 -0.18033019 -0.0068738568
000250 8e b0 8e 3e e8 a9 d0 bd 93 b4 90 3e 14 63 35 3f
       0.27869076 -0.10188657 0.28262767 0.70854306
000260 d7 db 32 bf b0 1e 1f bd cd 12 20 3f d5 b4 da bd
       -0.698667 -0.038847625 0.6252869 -0.10679022
000270 7b e0 70 be a1 bc f3 be c2 c7 d5 bd 48 c0 49 3f
       -0.23523133 -0.4760485 -0.104384914 0.7880902
000280 17 71 e5 3e f0 05 29 3f 71 65 a1 3e 2c 6e 73 bd
       0.44812843 0.66024685 0.31522706 -0.05943124
000290 86 1e 4a 3d 63 79 a3 be 20 0b a2 3e 05 3d e7 bd
       0.049345516 -0.31928548 0.31649113 -0.112909354
0002a0 47 86 f9 bc 44 01 ba 3e b8 5a f5 3e 99 32 9f 3e
       -0.030459536 0.3632909 0.47920775 0.3109329
0002b0 fc e4 05 bf 0c f0 2a bd 55 47 45 3e d4 ea a8 3d
       -0.5230253 -0.041732833 0.19265492 0.08247915
0002c0 74 b3 c9 3e 4d 12 d6 3e a3 0b e2 3e d3 3e b8 bc
       0.39394724 0.41810837 0.44149503 -0.022490894
0002d0 1f bd 0d 3d ac 61 69 be 7b 53 49 be fc b7 54 be
       0.034604188 -0.22791165 -0.19660752 -0.2077331
0002e0 e6 de d3 3e 74 06 78 be 1d 88 28 be d4 01 ef bd
       0.41380996 -0.24221212 -0.16458173 -0.116702706
0002f0 a9 42 74 3f 69 47 2e 3e 14 80 8b be 71 bf 3b 3e
       0.95414215 0.17019428 -0.27246153 0.18334748
000300 70 7e 8f be 71 8d 5b be 27 4a 10 3d 62 5c a0 3e
       -0.28026152 -0.21440674 0.035226967 0.31320482
000310 a6 aa e3 bd 2f b2 a5 3e 29 2f 25 bf e3 7a 4a 3e
       -0.11116533 0.32362506 -0.64525086 0.1977344
000320 c6 02 ed bd b8 d1 6d bf e2 ae 03 3e c1 52 8d 3d
       -0.115727946 -0.9289813 0.12859681 0.0690055
000330 eb 99 f7 bd 6c df 78 be df d1 b2 3c 6a d4 6d bc
       -0.120899044 -0.24303979 0.02182859 -0.0145159755
000340 64 34 ee bd 7d db 5f 3e 4e 64 a0 be d6 f6 c2 be
       -0.116310865 0.21861072 -0.31326526 -0.38078946
000350 4b 1f 56 3e 9f 35 10 3f 57 a0 94 bf 3c 6d 42 3e
       0.20910375 0.5633182 -1.1611432 0.18986982
000360 b8 28 f6 3d 66 22 a2 3e 41 57 48 3e 02 1f ae bd
       0.12019485 0.3166687 0.19564535 -0.08502008
000370 8a ce 99 be fa 60 70 3d 30 ab 00 3f 24 fb be be
       -0.3004039 0.058686234 0.5026121 -0.3730098
000380 23 62 79 be 05 56 9e be b5 a7 db 3d 32 cc bc 3e
       -0.24353842 -0.30925003 0.10725347 0.3687454
000390 4e 6a ac bd 0e c3 9e 3b f9 93 d8 3b a4 bf 31 3f
       -0.084187135 0.0048450297 0.0066094366 0.69433045
0003a0 c0 22 6f 3d 70 93 31 3d 5d 83 2e 3d 3f 8a 02 bf
       0.05838275 0.043353498 0.042605747 -0.50992197
0003b0 81 8b 12 be f8 c9 c8 bf 9c 45 b1 3e 48 2e fa bd
       -0.14311029 -1.5686636 0.3462342 -0.12215859
0003c0 17 43 fd be 02 9a e0 3e f7 62 9d bc 5d cf c3 bd
       -0.49465248 0.438675 -0.01921223 -0.09561036
0003d0 4b 04 28 be f9 e6 44 3e ac d2 f1 bd 3b 9a f2 3e
       -0.16407888 0.19228734 -0.118077606 0.47383294
0003e0 3c 2c 90 3e 6f 11 0d 3d 62 4c c4 be be df 5d 3e
       0.28158748 0.034440454 -0.38339525 0.21667382
0003f0 cf c5 ed 3e 32 b8 6e c0 26 6b 8a bd c2 06 79 be
       0.46439978 -3.7299924 -0.06758718 -0.24318984

q_net_target.q_net.2.bias f4 [32]
000000 d7 11 fb 3e 2b 94 de 3e 06 c1 6b 3e 32 cc 48 3e
       0.49037048 0.43472418 0.23022851 0.19609144
000010 1a d0 a0 bd e9 4f 10 3e b2 3a ca 3e e2 ab 06 3e
       -0.07852192 0.14092983 0.39497906 0.13151506
000020 6f 3d 40 3d 62 fe 83 3e 0a 2f ab 3d d8 fe 55 3e
       0.046933588 0.25780016 0.08358581 0.20897996
000030 71 b8 d7 bd a2 f0 8d 3e 40 d0 8a 3d 5e 8d ab 3e
       -0.10533226 0.2772265 0.06778002 0.33506292
000040 cd 83 07 3e 38 4d 86 b9 c3 e6 62 3c 01 ec 95 3e
       0.13233872 -0.00025616004 0.013848963 0.2928162
000050 09 23 8e 3b cb 10 12 3e 81 3f 1b be a1 a6 fd 3d
       0.0043376726 0.14264219 -0.15160944 0.123852976
000060 1f 17 13 3e f4 24 21 3e 9b 00 8a 3e ad 5c 07 3f
       0.14364289 0.15736753 0.26953587 0.52875787
000070 c8 08 89 3e 0c af e0 3e c6 41 c1 bd 2b 82 65 3e
       0.26764512 0.4388355 -0.094363734 0.22412936

q_net_target.q_net.4.weight f4 [4, 32]
000000 6c e0 7a 3f d2 a2 5e 3e c8 31 2b 3f 92 75 0b bf
       0.9799869 0.21741799 0.66872835 -0.54476273
000010 8c d4 0c c0 b0 8d 84 bd 0e 34 11 3f 4c 14 ef be
       -2.2004728 -0.06472337 0.56720054 -0.46695173
000020 6a 57 3b 3e 90 3a eb be 2a 97 c7 3f 15 b6 65 3f
       0.18295065 -0.45943117 1.5593007 0.8973096
000030 a0 b8 c2 3f 9a 31 42 bf 01 84 3a bf 36 78 e1 bf
       1.5212593 -0.75856936 -0.7285767 -1.761481
000040 c8 a5 88 3d ef b9 91 bf bd 0d 3b 3f 96 1e e0 3e
       0.06672245 -1.1384867 0.7306784 0.43773335
000050 29 39 07 bf f5 90 60 3f a6 70 07 40 c6 fe 80 be
       -0.52821594 0.87721187 2.1162505 -0.25194377
000060 c1 f6 ee be 84 e5 d8 3e 75 c3 e9 bf 0f 5a 51 3f
       -0.46672633 0.42362607 -1.8262774 0.81778044
000070 d0 bf ef 3f 4c 74 8c 3f a6 28 f3 3e 87 0a 92 3f
       1.8730412 1.0972991 0.4749195 1.1409463
000080 3b 1f 63 3f 41 ed ad 3d c1 a3 5e bf 02 90 b4 bf
       0.8871953 0.08492518 -0.8696862 -1.4106448
000090 d8 72 ce 3e 85 a2 37 be 2f a4 11 be a4 f0 74 bf
       0.40321994 -0.1793309 -0.14222787 -0.9567969
0000a0 78 e3 bd 3c 57 4b 29 3e 55 a2 ea be 92 39 9a 3e
       0.023179755 0.16532646 -0.45826975 0.30122048
0000b0 fc 4a 1c 3e 8f 8a 91 bf 58 77 8a bf 3d a3 be 3d
       0.1526298 -1.137041 -1.0817671 0.09308479
0000c0 57 7f 30 c0 14 49 61 be b0 c2 57 3f f4 3f e8 3f
       -2.7577722 -0.22000533 0.84281445 1.8144517
0000d0 3c 96 98 3f 08 a3 76 be 77 e9 7a 3f f6 2f 8e bf
       1.1920848 -0.24085629 0.9801249 -1.1108387
0000e0 7a 2f 82 3f 75 a6 ee be e4 9c 5d 3e 4a 40 70 3f
       1.0170739 -0.46611372 0.2164188 0.938481
0000f0 a0 15 5d 3f cd f6 ec 3f 9b bd 49 be fc 47 54 3f
       0.8636112 1.8512818 -0.19701235 0.8292234
000100 9d 9d 41 bf c5 40 c0 bf f2 ca b1 3f b2 da 94 bf
       -0.75631124 -1.5019766 1.3890059 -1.162924
000110 c0 0e cb 3d 3a 10 11 bf 3d 7e 0f 40 40 e8 9b 3e
       0.09914923 -0.56665385 2.24208 0.3045063
000120 87 1a 0d 3f 1e b8 10 bf 8a 28 3f bf e5 aa 74 3f
       0.551186 -0.5653094 -0.7467123 0.95573264
000130 55 1e 6f bf 32 7c 40 3e 04 34 5c bf 13 56 f5 3e
       -0.9340566 0.18797377 -0.8601687 0.47917232
000140 3b bf 38 3f 4d f8 90 bf b4 64 e0 3f a6 2e 0b be
       0.72166795 -1.1325775 1.7530732 -0.13592014
000150 2e 50 4e 3f 30 14 5b 3f c0 4f d9 3e ce 43 0a be
       0.80591094 0.8557768 0.42443657 -0.13502428
000160 36 8f 2e 3f b8 a7 e5 be aa e5 84 3e 35 76 af 3f
       0.6818727 -0.44854522 0.2595647 1.3707949
000170 6b b9 a8 3f 68 8a 37 3f a1 a1 1c 3f cd b1 9a 3d
       1.3181585 0.71695566 0.61184126 0.07553444
000180 78 3b f4 3d 19 ca 9b bf 2c f8 91 bf 44 06 e8 3e
       0.11925405 -1.217105 -1.1403861 0.4531728
000190 e4 f5 af 3e 60 c4 15 3f 82 7a 04 3e 0a 91 19 bf
       0.34367287 0.5850277 0.12937358 -0.5998694
0001a0 e1 c3 76 be 30 a3 4a bf 37 2a 11 bf 65 08 b0 3f
       -0.2409816 -0.79155254 -0.5670504 1.3752562
0001b0 55 92 92 be 61 ef 95 3e 36 d8 cd be 92 7a 00 3f
       -0.28627267 0.29284194 -0.40204018 0.5018703
0001c0 1f 03 2f 3f 5e bc eb be 19 00 a0 3f 84 0b 4d 3f
       0.6836414 -0.4604215 1.250003 0.80095696
0001d0 98 ee 11 bf f2 5e 36 bf 8e dd e1 3f 9f 4a 2c bf
       -0.5700469 -0.71238625 1.7645738 -0.6730136
0001e0 be 9f d5 3f 36 fc 4f bf 3c 44 80 3e c1 61 80 3f
       1.6689374 -0.8124422 0.2505206 1.0029832
0001f0 40 05 44 3f d2 2f 23 bd 16 9f 10 3f f9 21 e1 3e
       0.7657051 -0.039840527 0.56492746 0.43971232

q_net_target.q_net.4.bias f4 [4]
000000 25 7b 99 be 9d ce d5 bc e3 eb 38 be df 00 41 be
       -0.29976764 -0.026099497 -0.18058734 -0.18847989
